model/model.pth (torch, 17216 bytes, 4 tensors)

ln1.weight f4 [256, 11]
00000000: 7a40 0bbe 1307 1cbe 1fe7 f33e 658e 353d
00000010: 76c5 773e 46f8 dc3e 3500 56be b789 afbe
00000020: d0a9 ae3d 11c9 df3d fba4 f9be 900a dfbd
00000030: 17c6 d0bd 289f e3bd 70b4 b6bd 48cd d6bd
00000040: a0ad eb3b d8f1 1f3b 615b 8f3d a3e4 97bc
00000050: aadb bb3b c646 0bbd fce6 a53e 345e 28be
00000060: c932 cf3e c3f3 bcbc 711a cbbc 5ee8 7f3b
00000070: d65f 7bbe e573 893e 8869 283d 9f68 303e
00000080: 0bd4 ea3d 1f80 9e3e 9e60 8cbc dabe 60bd
00000090: 761e a0be ff82 b0be 0c05 c8bd cd56 e43e
000000a0: 2a06 30be 86f3 6dbe 27d7 c0be 306b 893e
000000b0: 3e42 41bc 8901 f13d 36fb b8be 11d5 c1be
000000c0: 4cf6 923e e7cd 613e 9462 dcbe 4f8d de3e
000000d0: 069e 97be 83e5 bdbd fed0 6bbe 7016 ab3e
000000e0: e0e0 fb3e ad28 0a3e 6d3e 32be 69f3 e1bc
000000f0: 9a6c 6ebb 2e48 27be cf0e 9a3e 0b83 183d
00000100: 7aa7 923e 6991 b93c ba1b 15be bb0c cc3e
00000110: bed0 84bd 6ea7 933d 3208 f0be 5a6f dcbd
00000120: dc30 053e ca0e 47be dce4 7f3e 5eb6 29be
00000130: 2530 5abe fbb6 ba3e f997 993e 0374 8d3e
00000140: 72ef 6abd 5b69 223e 47fa a83d d87a 893d
00000150: b680 a13e d3a1 813d 8a31 a43d 5b72 27bd
00000160: 70b5 c53c 1d77 2dbf ca82 273d 06ec ecbe
00000170: a990 9a3e 330b 03be cfc0 ea3b d2fd bc3e
00000180: ed48 9fbe 807f 2b3e 25eb 02be 5fed 103f
00000190: c92e 0ebf 33b3 46be 1b03 3c3e f558 9d3e
000001a0: 1036 103e b70b a83e 4663 9cbd f91b 29bd
000001b0: 8c3d bdbd e18b b5bd 3c6a 933e 9f7e af3e
000001c0: 8137 053d 73ca 83be d641 d53e e730 4abe
000001d0: 4869 6b3d 18b8 8e3e 55f9 b5be b6dd b03e
000001e0: 9c5f 85be 5ac0 be3e 7863 08bf e01d 8b3d
000001f0: d125 fabd b11a 92bd b826 28be 93b9 debd
00000200: ec1b c83e 9ca1 bc3e 31ac d13e 367d b03e
00000210: 97d3 80be 8c1d d5bd a672 32be df6e 573e
00000220: 3d16 5ebd 06c6 073e 0032 b9be 1f74 15be
00000230: 60a2 933e edbf 1dbd fb53 f63e bdd3 7bbe
00000240: 1d06 483e 5a9b 873c 75e7 9b3d f5e9 d93e
00000250: e9fd 68be bf84 83bd d4fe 383d ada2 a9be
00000260: 27e7 dd3e 88f6 c63d 0061 b9bd 8652 bd3d
00000270: a79c 8f3e ce00 f7bd 03cf f7bd d1f1 223e
00000280: f46a 09be cfa5 273e 8a1e b23e 8e31 9e3e
00000290: 6299 4e3e 83d3 e9be 08cd 053f 5179 5fbd
000002a0: daab 00bf b803 bebe 3fbd 433e 968f 7f3e
000002b0: a04f 77be 634a 72be bf73 e73e 0dfd a23e
000002c0: 6213 993e 9cec a43e eb40 16bf 2073 8ebe
000002d0: 4df2 6c3e e5eb 873e 7d00 a03c 2db9 92be
000002e0: 1943 f73d ea64 a4bc 6250 06be c917 263e
000002f0: 3669 573d 1ca6 afbc 277a ffbe 975c 68be
00000300: 420b 903e 4e75 873c bb8d a73e 47f3 963d
00000310: 3332 e4be 227d e3be a304 ba3d d2c9 8c3e
00000320: 7fa4 483e b584 c93d c6c3 2d3e 1209 88be
00000330: 8efc fb3d e945 5a3e eed0 a73e cd64 b03d
00000340: 6fe1 afbd ab4d 45be 602b e9be 9cfd 4d3e
00000350: 1be9 af3e 3d96 78bd 9d6c e7bd 6252 a83e
00000360: 7eb7 d7bc 7bb6 2fbf 80fd db3d 8a82 ebbd
00000370: 4d7c 823e a609 223c 28fe 0bbe 032a 723e
00000380: 6590 bebe a3ff 27be 3b21 e23e e9af 24bf
00000390: 85c5 f3be a5d7 27be 3e21 d53e adcc 5bbe
000003a0: 402f 4dbd 3e7a 0f3f 514f 9cbe 634a b0be
000003b0: d7d7 e13d 0e7a 893e b9bd c7bd 78b0 a5be
000003c0: de7c 873d 89bb 453e 5e7f c63d 312d 17bc
000003d0: db6b 393d 58f8 9dbd 5d9b b23c fa97 8cbe
000003e0: bcda 97be d562 6dbe 7108 e5bd 578a 22bd
000003f0: aedf 91be 0db8 2a3f 4956 86bd 35bd b13d
-0.13598815 -0.15237074 0.4763727 0.04432525 0.24196419 0.43158168 -0.20898516 -0.34284756
0.08528483 0.10927022 -0.48758683 -0.108906865 -0.10194033 -0.11114341 -0.089211345 -0.10488373
0.0071923286 0.0024405625 0.06999851 -0.01854164 0.005732973 -0.03400304 0.3240279 -0.16442186
0.40468433 -0.023065453 -0.024792882 0.0039048414 -0.24548277 0.26846233 0.041116267 0.1722741
0.11466225 0.30957124 -0.017135914 -0.05486951 -0.3127324 -0.34474942 -0.097665876 0.44597474
-0.17189851 -0.23237428 -0.37664148 0.2683959 -0.0117955785 0.11767871 -0.3612916 -0.3785787
0.28703535 0.22051202 -0.4304396 0.43467185 -0.2961275 -0.092722915 -0.23028943 0.33415556
0.49195004 0.13492079 -0.17406626 -0.027581887 -0.003638065 -0.16336128 0.30089423 0.037234347
0.286434 0.022652345 -0.14561358 0.39853463 -0.06485127 0.07209669 -0.46881253 -0.10763426
0.1300692 -0.19439235 0.24989647 -0.16573474 -0.21307428 0.36467728 0.29998758 0.27627572
-0.05735726 0.15860502 0.082508616 0.06712884 0.3154351 0.06329694 0.08017261 -0.040880542
0.024134368 -0.6775988 0.040896215 -0.46273822 0.30188492 -0.12797241 0.007164098 0.369124
-0.31110325 0.16747856 -0.12785013 0.566122 -0.5554014 -0.19404297 0.1836056 0.3073193
0.14083123 0.32821438 -0.076361224 -0.041286442 -0.09240255 -0.088645704 0.28791988 0.34276292
0.032523636 -0.25740394 0.4165179 -0.19745217 0.05747345 0.27874827 -0.35541788 0.34544152
-0.26049507 0.37256128 -0.5327678 0.067928076 -0.12214244 -0.07133997 -0.1642102 -0.10875239
0.39083803 0.36842048 0.40951684 0.34470528 -0.2516143 -0.10406026 -0.17426547 0.21038388
-0.054220427 0.13259134 -0.3617096 -0.14595078 0.2883482 -0.038513113 0.48110947 -0.2459249
0.19533582 0.01655357 0.07612506 0.42561308 -0.22753109 -0.06421804 0.045164898 -0.33131924
0.43340418 0.09714991 -0.090517044 0.09244256 0.28049204 -0.120607 -0.12100031 0.15912558
-0.13419706 0.16371845 0.34788924 0.30897182 0.20175698 -0.45669183 0.5226598 -0.054559056
-0.50262225 -0.37112212 0.1911516 0.24957117 -0.24151468 -0.23661189 0.45205495 0.31833687
0.298976 0.3221177 -0.58692807 -0.27822208 0.23139305 0.2654716 0.019531483 -0.28656903
0.12073345 -0.02006765 -0.13116601 0.16220011 0.05259057 -0.021441512 -0.49897882 -0.2269157
0.2813359 0.016535427 0.3272532 0.0737062 -0.4456955 -0.44431406 0.09082916 0.27497727
0.19594 0.09839765 0.16969213 -0.2656942 0.1230403 0.21315731 0.32776588 0.08612976
-0.0858792 -0.19267909 -0.45540905 0.20116276 0.34357533 -0.060690153 -0.11300013 0.32875353
-0.026332613 -0.6863782 0.10741711 -0.11499508 0.2548546 0.009889996 -0.13671172 0.23648839
-0.3721954 -0.16406111 0.44165978 -0.6433092 -0.47611633 -0.16390856 0.41626924 -0.21464796
-0.05009389 0.560459 -0.30529264 -0.34431753 0.11027496 0.26850933 -0.097529836 -0.32361197
0.066156134 0.1930982 0.09692262 -0.009227083 0.045268875 -0.077133834 0.021802599 -0.274597
-0.2965907 -0.23182233 -0.11183251 -0.039682712 -0.28490967 0.6668709 -0.06559426 0.086786665

ln1.bias f4 [256]
00000000: 756c be3d fd2c 1bbe 83c3 70be ffb2 79be
00000010: 8c90 59be e94b 5bbe e29c a3ba 6619 b1be
00000020: 2f1b a9ba e6e3 123f 9890 1cbe 56a9 9fbe
00000030: 6c00 d5bd 2b66 f0bd 8f5f a0bd 6d17 23bd
00000040: a4f4 323e 8399 2a3e 2e87 9dbe 02fc 953e
00000050: 3c1c abbd c8a8 c5bd 7892 1dbe 5f64 06bd
00000060: a06c 61be 7ac9 b1be b126 c7bd bc11 113e
00000070: 5d40 d63d 4397 0b3e 9ea1 32be c05e a0bc
00000080: f7e9 4a3e f84c 42be 7dc8 243e b16d 15be
00000090: 306a 923e 07f5 a73c 6f28 423e cdf4 42bd
000000a0: 1611 c43d 9422 fb3d c219 b3bd 7df6 86be
000000b0: d57d eb3c c4bd 64be c0cb d8bd 6f8b d0be
000000c0: 903a 82bd c29a 01bf 2831 813e 2d35 f63e
000000d0: 2e4e 9fbe 658e 443d fbf6 2f3d 45c6 5cbd
000000e0: cf0e 833d b4a7 c5be 3710 dd3e cf85 14be
000000f0: 2e3a 2dbe b29d d63d a812 f3bd 8c4e f83b
00000100: 867f 0d3f 987f ffbd 27e7 97bd 219f 963e
00000110: 641a a83c 15e1 dd3d 4b5d 37be ed07 143e
00000120: ae9e 8bbe 7a49 c13e f5a0 f1bd b0dc 1fbe
00000130: f3f5 a8be 20b6 9e3d ac16 63bd 0bf1 6ebe
00000140: 9709 6fbd 0dce 6dbc ff76 cebd afb3 7cbe
00000150: 8b4a e1bd 32b8 1cbe 22f5 8c3e 02ca aa3d
00000160: f68d 1ebe 1dfb 3bbe 9834 f3be 6c71 71be
00000170: f7a4 4b3d ca8b 5c3e e4a5 e83d 5bbd b53e
00000180: 7622 1d3d 5777 563d f328 6bbe 6efd f13e
00000190: 7181 bdbe dbe9 bfbe 0176 c2be a80a 09bd
000001a0: 26fc b0be aeb3 bc3d 1c29 20be ef54 82be
000001b0: 0778 4dbd 7b18 9dbc a188 803e 3256 f3bd
000001c0: 7fba 983e 21a8 2dbe 5c44 73be 283e 6c3d
000001d0: 86f6 543d 4801 98be ed9e c53d c0f6 79be
000001e0: 9242 16be c9ac c4bd e91e 58be 334a 8a3d
000001f0: 4e37 0bbe ce2a 54be 8750 80be 0b05 49be
00000200: d3e5 acbd 1f60 a13e 93e9 70be 087f be3d
00000210: b545 f2bd 5fad 5dbe 9e3d 4cbd 12d5 a13d
00000220: 73e8 df3d faad 89be 8af7 44be 1003 9fbe
00000230: 5b08 bdbd a075 643e ea0d 71be a233 1ebe
00000240: ad8c b13d ef65 29be 38d8 dcbe c1ab cfbe
00000250: a1a8 41bd 2dee 41be 4141 b53e 8ff5 823c
00000260: c6ec 8abe 6deb e83d e821 b8bd 5166 36be
00000270: 9c6a bcbd 6748 13be 5d61 abbd 8031 26be
00000280: 3ea5 5f3f b2f0 98bd efa7 95bd db07 9bbe
00000290: aacb 0cbe 4cdb 58bd 95da 1ebe 600e 71bd
000002a0: af86 82be 8405 83bd f783 1f3e 80ed adbc
000002b0: d080 14be 1a19 44be 7812 b13d 7aef 85bd
000002c0: 2db0 1b3d b660 bebc 77c6 51be 71f7 2ebe
000002d0: 1892 c8be a05f 17be d732 26be ef6b 023d
000002e0: df6c 0fbe 1ba3 9b3b 06ae 39be 0af3 46be
000002f0: 3e86 ae3e a81f 2dbd 360d e73e a86b 893d
00000300: 978f 81be 4bdd 95bd 4e72 183e 47b3 d93e
00000310: d8ce 26be c205 60bd ba81 24bc 7038 d83c
00000320: 8807 443d abf1 b3be 4f4e b83d 4239 10be
00000330: 93c4 81be 59cf 29be ac59 39be f92c 34be
00000340: 600d 873e eb24 39be 4d52 eebc 3d48 a3be
00000350: 4187 67be 9771 a1bc 9243 9e3e ee59 c8bd
00000360: 539e 0b3e 5a26 85be f4e8 a33e 87bb ec3d
00000370: 79c1 e23e 4200 ca3e 8913 cabd b68f 1fbe
00000380: 609c c83e 32b9 94be dcb2 9c3e 6cbe 413f
00000390: 7a51 e83e e63c 3f3e c578 52be 8275 39be
000003a0: 82bc 11be e180 02be 4389 49bd 1dbd bfbe
000003b0: 66e0 f03c 9823 073e 25b6 60be a326 b5be
000003c0: 18c2 8ebe 8409 b13d 5ac0 f33e 328d 433e
000003d0: 14f4 7bbe 6209 173d 3a86 fb3d 0836 5bbd
000003e0: a620 aebe 5595 ccbd 09cc 743e 9ced d9bc
000003f0: 4f82 983d 58ff aa3d 976c 92bd 067f 443e
0.0929803 -0.1515388 -0.23512082 -0.24384688 -0.21246547 -0.21415676 -0.0012482668 -0.3458969
-0.0012901778 0.57378995 -0.15289533 -0.3118388 -0.10400471 -0.11738237 -0.07830726 -0.039817262
0.17476135 0.16660123 -0.30767196 0.2929383 -0.08354995 -0.09651333 -0.15387905 -0.032810565
-0.22014093 -0.34724027 -0.09724177 0.14166921 0.10461495 0.1363192 -0.17444465 -0.01957643
0.19815813 -0.18974674 0.16092105 -0.14592625 0.2859664 0.02050258 0.18960737 -0.04759674
0.095735714 0.12262455 -0.08745147 -0.2635993 0.028746525 -0.22338015 -0.10585737 -0.4073138
-0.06358826 -0.50626767 0.25232816 0.48087445 -0.31114334 0.04798736 0.04296015 -0.053900022
0.06399309 -0.3860451 0.43176433 -0.14504169 -0.16916725 0.10479297 -0.11868793 0.007577723
0.5527271 -0.124755085 -0.07417136 0.2941828 0.020520397 0.108339466 -0.17906682 0.14456148
-0.272695 0.3775137 -0.11798278 -0.1561153 -0.33000144 0.07749581 -0.055441543 -0.23334138
-0.058358755 -0.014514458 -0.100812905 -0.24677919 -0.11000546 -0.1530464 0.27530771 0.08339311
-0.15483841 -0.18357511 -0.47501063 -0.23578423 0.04971787 0.215377 0.11359766 0.3549603
0.038362943 0.052359905 -0.2296484 0.47263664 -0.37012818 -0.37483105 -0.37980655 -0.03345743
-0.34567374 0.09213959 -0.15640682 -0.25455424 -0.050163295 -0.019176712 0.2510424 -0.11881675
0.29829785 -0.16958667 -0.23756546 0.057676464 0.051992916 -0.29688478 0.09649453 -0.24410534
-0.14673832 -0.09603269 -0.21105541 0.06752434 -0.13595316 -0.20719454 -0.25061437 -0.1963083
-0.08442273 0.31518647 -0.23526601 0.09301573 -0.11829702 -0.21648167 -0.04986345 0.07901968
0.10933008 -0.26890546 -0.19235054 -0.31057024 -0.09230109 0.22310495 -0.23540464 -0.15449384
0.0866941 -0.16542791 -0.43133712 -0.40560725 -0.047279958 -0.18938513 0.35401347 0.015986232
-0.2713377 0.11373029 -0.08990842 -0.17812468 -0.092000216 -0.14383088 -0.0836818 -0.1622982
0.87361515 -0.07467784 -0.073074214 -0.3027943 -0.13749567 -0.052943513 -0.1551307 -0.0588516
-0.2549338 -0.063975364 0.15577684 -0.021231413 -0.14502263 -0.191502 0.08646101 -0.06539817
0.03800981 -0.023239475 -0.20485865 -0.17086579 -0.3917396 -0.14782572 -0.16230331 0.031841215
-0.14006375 0.0047496683 -0.18132791 -0.1942865 0.34086794 -0.042266518 0.45127267 0.06709987
-0.25304863 -0.07317599 0.14887354 0.4251959 -0.16289842 -0.05469299 -0.010040695 0.026394099
0.047858745 -0.35145316 0.08999311 -0.14084342 -0.25345287 -0.16583003 -0.18100613 -0.1759528
0.26377392 -0.1808049 -0.029091978 -0.3189105 -0.22610189 -0.019707484 0.30910927 -0.09782778
0.13634615 -0.26005822 0.32013667 0.115592055 0.44288233 0.39453322 -0.09867007 -0.15582165
0.39181805 -0.29047543 0.3060521 0.75681186 0.45374662 0.18675575 -0.20553882 -0.18111232
-0.14232066 -0.12744476 -0.04920317 -0.3744897 0.029403877 0.13197172 -0.21944483 -0.3538104
-0.27882457 0.08644393 0.4760769 0.1909683 -0.24604827 0.036874183 0.12281461 -0.053518325
-0.34009284 -0.0998942 0.23905958 -0.026602559 0.074467294 0.08349484 -0.07149618 0.1918908

ln2.weight f4 [3, 256]
00000000: 0ab9 be3e d4ed 303d 6fd6 45bc f14f 9d3e
00000010: bd45 17be 9d35 13be b28a 2ebe a3cd 31bd
00000020: 8cc4 dfbe 9853 233e 1463 aabe 1290 d4be
00000030: 2f9f 28be a55d 84be ab1a 77bc d72c b33e
00000040: 8404 d03d afd3 c7be c425 b5bb 52c4 8f3e
00000050: 985d 883e 13a2 2f3e 880e af3d 6a46 d8be
00000060: bcbd 98bd 0a23 6d3e 98af 6d3e 3e0a 07bf
00000070: 7115 383e c8e2 6f3e 87fc 27bc 3d52 2bbd
00000080: 75d7 a13e 6d2e 8ebe 000b 583e df13 813a
00000090: 2dec 7f3e bf5a 9cbb 04b1 973e 6d8a a23e
000000a0: 2c50 d13d 08a1 75bc 9e0e 6e3d 3cd4 4cbe
000000b0: 01fb 5e3e cc84 d3be e40f d53e 23dc 6b3d
000000c0: 07c4 953e ab67 85be d035 a43e e79b 603e
000000d0: 456c c8bc 0a77 ee3e a585 08bd 22db 49be
000000e0: f695 10bf 0d64 52bc 5159 883e 8924 d5be
000000f0: 40e6 c6be d7eb 4a3d b5f4 513e bdd4 4bbe
00000100: aaf0 6f3e e923 a1bd 6a4b 7ebe 2829 b73e
00000110: 7ba7 f8be 7536 b53e 2177 7abe 3cf7 8b3e
00000120: b5c5 083c d716 983e 8c45 13be a8dc 703d
00000130: ec07 9dbd 6807 073e f380 ecbe c515 07bf
00000140: c9d2 a4be 2af2 9d3e bc69 24be 0c59 d3be
00000150: fb26 3ebc 261f 83bd 83b1 783d aaa0 f3be
00000160: 1d5a a9bc 5a85 97be be80 4fbe a604 35bd
00000170: a6bb 2bbc d23d 7cbe 35df 1a3e 150d ef3d
00000180: a24c 28bd 048d 39be 407d e7be d157 0d3e
00000190: c376 523c d12b 95be 831d a4bd cdbe 0e3f
000001a0: df1c 8ebd 39b0 fabe 7438 e3bd 6d81 e7be
000001b0: 4aa9 0cbe 9112 633e 5892 783e cb81 87bc
000001c0: e864 903e bff6 71bd 7bbb bcbd cd6d 17bd
000001d0: 8d6a 043e a8bc edbe 3b5c 553e cda9 d3be
000001e0: 8e62 19bf b85e b7be 8969 74be 0f61 0bbf
000001f0: e1e0 c8be 00c7 e83d 77cc a6be 636d bc3c
00000200: 7643 e63c b859 cf3e 5f10 94be 3a57 d93e
00000210: 9114 58be e915 48be 1e7e 4fbe bad6 363e
00000220: 60a8 fc3d 8277 8ebd 7b05 47be 5ec5 39be
00000230: b1f2 86be daa1 8b3e 3916 57bc ce1e c5bb
00000240: 5588 93be 9254 53bd 647a c2bb d451 68be
00000250: 7776 1bbe 6a3c 12bf 01a7 ad3e 0572 92be
00000260: cabf 01bd 6cc9 953e 2101 5e3e e66a 9abe
00000270: 006b ddbe 9f7c 68b9 7fa1 a8be 8f34 09be
00000280: b06e e53e 9af0 6d3e 65a9 64be 118b 4c3c
00000290: e3c8 33be dad3 b03e 95a9 04be 2f52 003a
000002a0: f63c a9be 9cf8 b13e 1384 a03e 70c9 073e
000002b0: b31f 03bd 4327 db3b 9a18 623e 271f 2a3e
000002c0: 5f29 b4be 3989 17be f72d 85be 589d ef3d
000002d0: a3f0 523d db96 48be 52d4 ecbd 8ef3 a1bd
000002e0: 09cf 87be 2cc3 a73d 72c1 c7be c05d 8cbe
000002f0: 0f1c 283e 0e09 643d 4e38 ef3e e4a2 31be
00000300: e1d2 85be 18c4 03bf f03e 9abd 03b2 403e
00000310: 56ad 5abe 3db2 1dbc 41e8 203e f1ce eb3e
00000320: 5421 7c3e 101b 9abe 3927 4e3e 5143 993e
00000330: 56ba bdbe 58e4 f33e fadd 4fbe 500d f53d
00000340: 1ea5 5f3e 1983 7ebd f8e3 13be 4d2f 0cbc
00000350: 3a4e 9dbd 6806 f3be 108a ad3d c2d8 3ebe
00000360: fa3b b83d 1bc5 d9bc 8ba6 9c3e 4fbf e0bd
00000370: 9df6 823e ba38 003f ee1f 7ebe cade 393d
00000380: 43d1 5b3e 85b5 c0bd ab9d 903e 487a 903e
00000390: 1661 5a3e 60cc 40bd 71ed 43bb cc06 51bd
000003a0: 87ae bebc 687f aebe a79b 443e 3a41 29be
000003b0: b0c2 a0be 97b3 7cbe 3b3e 29be 63ef 13be
000003c0: cb11 273e eb0a 24bf 90af d43e 9c82 4b3e
000003d0: b112 1ebe a394 3d3d 5dce 753e b711 91be
000003e0: e7c2 04be 8783 6fbd 17c0 e23e 365b 00be
000003f0: 2e63 a1be d760 b03d ef04 523e e74c ff3e
0.3725055 0.04319556 -0.012075051 0.30725053 -0.14772697 -0.1437592 -0.17045096 -0.043409
-0.4370464 0.15949857 -0.33278716 -0.41516167 -0.16466974 -0.25852695 -0.015082042 0.34995148
0.10157111 -0.3902869 -0.0055281837 0.28079468 0.26633906 0.1715167 0.085476935 -0.42241222
-0.07458064 0.23157898 0.23211515 -0.52750003 0.17976929 0.23426354 -0.010253078 -0.041826475
0.31609693 -0.27769795 0.21097946 0.0009847841 0.24992438 -0.00477156 0.2962724 0.31746235
0.1022037 -0.014992006 0.05811941 -0.20002836 0.21775438 -0.41312253 0.41613686 0.057582986
0.2925112 -0.26055655 0.32072306 0.21934472 -0.02446569 0.46575195 -0.03333058 -0.19712499
-0.5647882 -0.012841237 0.26630643 -0.41629437 -0.38847542 0.04954132 0.20503505 -0.19905372
0.2343165 -0.078681774 -0.24833456 0.35773587 -0.48565277 0.3539311 -0.24459507 0.27337062
0.008347918 0.29704925 -0.14381999 0.058804184 -0.076675266 0.13186419 -0.4619213 -0.5276759
-0.32192066 0.3084882 -0.1605596 -0.41278875 -0.011605973 -0.064024255 0.060716163 -0.47583514
-0.020672852 -0.29593927 -0.20263955 -0.044193886 -0.010481751 -0.24632958 0.15124209 0.11672417
-0.041088708 -0.181202 -0.45212746 0.1380303 0.012845698 -0.29134992 -0.080134414 0.5575989
-0.069391005 -0.48962572 -0.11094752 -0.45215932 -0.13736454 0.22175051 0.24274576 -0.016541382
0.28201985 -0.059073206 -0.092154466 -0.03696995 0.12931271 -0.46432996 0.20835964 -0.41340485
-0.5991601 -0.35814452 -0.23868383 -0.54444975 -0.3923407 0.11366081 -0.3257787 0.023001378
0.02810834 0.40498137 -0.2891874 0.4244936 -0.21101595 -0.19539608 -0.20262954 0.17855349
0.123368025 -0.06956388 -0.19435684 -0.18141696 -0.26357034 0.2727192 -0.013127857 -0.006015635
-0.2881495 -0.051594324 -0.0059350003 -0.22687465 -0.1518191 -0.57123435 0.33916476 -0.28602615
-0.031677045 0.29255235 0.21680118 -0.30159682 -0.43245697 -0.00022171669 -0.32935712 -0.13398956
0.4481101 0.23236313 -0.22330244 0.012484328 -0.17557101 0.3453663 -0.12955315 0.0004895059
-0.33054322 0.34759986 0.31350765 0.13260436 -0.032012653 0.00668803 0.22079697 0.16613446
-0.35187814 -0.1479844 -0.2601163 0.11699933 0.05149902 -0.19588797 -0.115639344 -0.079077825
-0.26525143 0.08191523 -0.39014775 -0.27415276 0.16416954 0.055672698 0.46722645 -0.17347294
-0.2613745 -0.5147109 -0.075315356 0.18817906 -0.21355185 -0.009625015 0.15713598 0.4605632
0.24622089 -0.30098772 0.2013215 0.2993417 -0.37056226 0.4763515 -0.20299521 0.1196543
0.21840331 -0.062136743 -0.14442432 -0.008556199 -0.07680936 -0.47465825 0.08473599 -0.18637374
0.089958146 -0.026583245 0.30595812 -0.10973989 0.25578776 0.5008656 -0.24816868 0.045378484
0.21466546 -0.09409622 0.2824529 0.28218293 0.21326098 -0.047069907 -0.0029896165 -0.051031873
-0.02327658 -0.34081578 0.19200002 -0.16528788 -0.31398535 -0.24677883 -0.16527645 -0.14446788
0.16315381 -0.6407916 0.41540194 0.19874042 -0.15436818 0.04628433 0.24004503 -0.28333828
-0.12964974 -0.058475044 0.44287178 -0.12534794 -0.3152098 0.08612221 0.20509695 0.4986336

ln2.bias f4 [3]
00000000: 4d8b 743e 57ec 7f3d 6fd9 e23c
0.23881264 0.06248125 0.027691571
